eklavya_part3.pth (torch, 91972 bytes, 13 tensors)

rnn.weight_ih_l0 f4 [64, 13]
00000000: eb86 07be 7490 be3d 7b6c da3d fb43 d43b
00000010: 6540 a0bc 4c8a c03d a688 b63c ebbb 6bbd
00000020: 7de1 4d3d 61dd 79bd f146 b1bd c7bb 09bb
00000030: 857c d1bd e787 e3bd 72d2 44bc 3e21 aabd
00000040: db1c a4bd d129 f7bd d255 143d 8ede b9bc
00000050: eed9 a6bb 0505 4c3d 30b0 863d 86d8 933d
00000060: 68c1 60bd 74a2 aa3c 841f ddbd 73c3 fd3d
00000070: 68ea 9c3d d0e3 4c3c e56e 68bd 7a4d 553d
00000080: d3e4 c23d 4439 48bd 2938 d8bd 9cb5 e0bd
00000090: bcdb f43d e358 293d e9a6 8dbb 2142 ff3d
000000a0: fd76 853d c5bf af3d 42f2 5fbd 5c00 f0bb
000000b0: 884e 35bb 150b 263a 9298 bc3d 88c8 dcbd
000000c0: 6048 c2bd 1895 d4bd ce64 cabd dccf e2bd
000000d0: d69b 8abd 5742 643d e4d0 93bd da75 5e3d
000000e0: 6b22 813d 4586 163c 567c e8bd 2149 c63d
000000f0: 6f74 a0bd 4aed 3c3d b071 89ba c614 6cbd
00000100: 561e 363d f318 7dbd 6691 abbd cc4e 9dbd
00000110: 6c76 063d fccb bcbd 5116 d83d ea2b 483d
00000120: ec76 733d 93e5 c4bd ec20 74bd 137b c53c
00000130: b5d7 95bd afbc 5e3b dd82 db3d 38c9 00be
00000140: 16f7 8d3d 343a aa3c 770c e33d 1b4d c03d
00000150: 342b cbbd 70ca 033e ce3a c2bd 1c3c a93d
00000160: d7d6 b8bd 22e9 aa3d 11ef 513b 37a4 aebd
00000170: a57a d63d 14d6 fbbd 1824 e6bd fb7e 003e
00000180: 2be0 9b3d 69e6 e73d 83f7 ffbd 601b ec3d
00000190: 8f06 89bd 45cf 92bd 808f 573d 9877 dabd
000001a0: 606a 533d 37d9 bb3c 87e4 a43d 715f b4bd
000001b0: 5814 863d e5e2 d43d fad5 95bd 8e04 1db9
000001c0: 7de7 8abc 8d54 c33d 1fe5 62bd f5bf 053d
000001d0: 6bfb 053b 9000 083e 9a93 893d 9199 983d
000001e0: 622c 383d 097a e93d 2474 4ebd 0c45 85bc
000001f0: 2c33 a43d 3220 c33c 8810 63bd 02b0 773d
00000200: 1e3e a43d 2ace 85bd eb45 2abd 4a85 9bbd
00000210: 1d05 8a3d 9e25 e33c 1576 b8bd 63b2 ce3b
00000220: f010 5c3d 5b9e 753d c79b 303d 85ce c73d
00000230: 5fd8 9bbd 874b be3d 9810 fd3d 1085 a7bb
00000240: 2f4b 253d c0ca b13d f0a9 02be 9261 493d
00000250: 6330 e9bd 85ed 903d 42cc af3d b59a 03bd
00000260: 996c b33d 9750 02be 8ea7 cbbd 27a4 96bc
00000270: 4ca7 06be f422 fc3b f632 d73d d06f 863d
00000280: 936a 0a3c 8815 be3c 5598 0e3d 5a51 173d
00000290: d5dc c0bd 03c5 b1bc 7f5b 0e3d 724b b3bd
000002a0: 42d5 7abd 7874 c83d f421 dbbd 7fde 4a3d
000002b0: 35db 2e3d 63be 983d dffa 25bd e31e e0bd
000002c0: 3cad 95bd 5079 f3bd 8cf0 843d df48 b1bd
000002d0: 2f45 41bd f9f2 693d e5ea d13d 6a82 8439
000002e0: d97f 9abd 29be 7fbd f307 bf3c 877d 9c3d
000002f0: 7a6f 06bc eb51 033e 22da f83c 8951 f13c
00000300: 9977 ab3d 7019 a8bd be4c 433d 7643 46bd
00000310: 1d47 efbd 5e48 903d 6f15 44bd 9877 ee3d
00000320: b80e 573d 7c0b 023d ec2e 173d 9c2f 34bd
00000330: 8b23 ddbc b134 adbc 98c9 fc3d c77f ccbd
00000340: bca7 e0bd 5295 cebd 0a23 673d fba7 cdbc
00000350: ee66 3cbb 32a9 a8bc b24b 743d 1cd3 a23c
00000360: e80f 833d 84de 083e 4a65 e7bc 9a22 c1bd
00000370: 4966 1e3d a02f 50bd 86d0 48bd f034 f0bd
00000380: ddb6 b8bd 1466 f1bd ce22 e63d 6728 72bd
00000390: 8370 05be db04 8bbc bee8 c5ba 9e41 35bd
000003a0: 3ad8 cdbc 727c 8d3d 09aa eb3d 7c1f 3a3d
000003b0: b55a 1bbd 743f 79bd 0fbb 0bbe 272a 023c
000003c0: db0c b0bd b13e 6cbc f266 ac3d cb1f a83d
000003d0: 5e8a 883d 8281 633d 0e7b da3d a52a 0cbe
000003e0: 5dbb 8d3d 5c83 013d 36fc 99bd 9eec b6bd
000003f0: 5134 103c a539 ba3d c612 fcbd c18c 2cbd
-0.13235061 0.09304896 0.10665222 0.0064778305 -0.019561956 0.09401378 0.022281956 -0.05755226
0.05026387 -0.06100214 -0.08656109 -0.0021016465 -0.10228828 -0.11109906 -0.012013065 -0.08307122
-0.08013316 -0.12068523 0.036214657 -0.02268913 -0.005091897 0.049809474 0.06576574 0.07219033
-0.054871947 0.020829417 -0.10797027 0.123907946 0.07661897 0.012505487 -0.056746382 0.05207584
0.09516301 -0.048882738 -0.10557587 -0.10972139 0.119559735 0.041344535 -0.0043228758 0.12463785
0.06516836 0.08581499 -0.054674394 -0.0073242616 -0.0027665216 0.0006334049 0.09208788 -0.10780436
-0.09486461 -0.1038 -0.09882508 -0.11074802 -0.067680046 0.05572733 -0.07217577 0.05431161
0.06305393 0.009187286 -0.1135184 0.09681917 -0.07834708 0.046124734 -0.0010486152 -0.057637
0.044462524 -0.06179137 -0.08377342 -0.07681045 0.03282778 -0.092185944 0.105511315 0.048870005
0.059439585 -0.096141 -0.05960171 0.024106538 -0.073165335 0.0033986976 0.107183196 -0.12576759
0.069318935 0.020779707 0.11086362 0.09389707 -0.0992035 0.12870193 -0.09483872 0.08263418
-0.090253524 0.08345248 0.0032033364 -0.08527415 0.10472611 -0.122966915 -0.11237353 0.12548439
0.07611116 0.11323244 -0.12498381 0.11528659 -0.06690704 -0.0716844 0.052627087 -0.10667342
0.05161512 0.022930725 0.08051401 -0.088072665 0.06546849 0.10394839 -0.073162034 -0.00014974384
-0.016956085 0.09537611 -0.05539429 0.032653768 0.0020444046 0.13281465 0.06717606 0.074511655
0.0449642 0.114002295 -0.05040373 -0.016268276 0.08017573 0.023819063 -0.055435687 0.06047059
0.080196604 -0.06533463 -0.041570585 -0.07593782 0.067392565 0.027727898 -0.09006897 0.0063078864
0.05372709 0.059965473 0.04311731 0.09756187 -0.07609629 0.092917494 0.12356681 -0.005112298
0.040354904 0.086812496 -0.12760139 0.049165316 -0.11386182 0.07076553 0.08583881 -0.032129962
0.08760948 -0.12726055 -0.09944068 -0.01838882 -0.13149756 0.0076945964 0.10507767 0.06564295
0.008448261 0.023203626 0.034813244 0.036942817 -0.0941712 -0.021700388 0.034755226 -0.087546244
-0.061238535 0.0978784 -0.106998354 0.049528595 0.04268952 0.074581884 -0.040522452 -0.10943391
-0.073084325 -0.11888373 0.06491193 -0.08656477 -0.04718512 0.057116482 0.10249881 0.00025274168
-0.07543916 -0.06243721 0.02331922 0.0764113 -0.008205289 0.12824218 0.030377451 0.029457824
0.08372421 -0.08207977 0.04768061 -0.04840418 -0.11683486 0.07045053 -0.047872003 0.116439044
0.05250427 0.031749234 0.036909983 -0.043990716 -0.026994487 -0.02114329 0.123431385 -0.09985309
-0.10969493 -0.10087074 0.0564299 -0.025104513 -0.0028747874 -0.020588491 0.0596425 0.019876055
0.06399518 0.13366133 -0.02824654 -0.09430428 0.038671765 -0.05082667 -0.04902699 -0.11728847
-0.090192534 -0.11787048 0.11237107 -0.059120562 -0.13031201 -0.016970089 -0.001509927 -0.04425203
-0.025127519 0.06908502 0.11507041 0.045440182 -0.0379283 -0.06085153 -0.13645576 0.00794462
-0.08596202 -0.014419244 0.08418073 0.08209189 0.066670164 0.05554343 0.10668002 -0.13688143
0.06920502 0.031619415 -0.075188085 -0.0893185 0.008801536 0.09093026 -0.12308268 -0.04212642

rnn.weight_hh_l0 f4 [64, 64]
00000000: 220f 803d 6a7d 973d 00a4 3939 f0a8 92bd
00000010: 0280 ddbd 5a45 b83d 8a2f a03d 400d 88bb
00000020: e0c7 68bd 3829 febc c44a 2cbd f009 923d
00000030: 501a 523c 1043 f03d dc98 e13d 48f7 9e3c
00000040: 3842 953c c0e2 453b 42bf 973d e01a d8bb
00000050: 4047 69bc fc0b fe3d 5882 cc3c 3c6a fbbd
00000060: 242a b9bd 88ec ecbc 647d f73d e0aa eebc
00000070: 4c5d ce3d 8cd2 9c3d a81a afbd c084 a7bb
00000080: 7675 c1bd d8e6 b8bc 5ee5 ee3d 4ca0 6d3d
00000090: 1814 563d f45f 65bd 0c96 2b3d 2aca de3d
000000a0: 8831 943d fa7f 80bd 3c02 f33d 903a 06bc
000000b0: f06d e9bd c45b 07bd 20f6 cfbc c045 b6bb
000000c0: 869b afbd 3019 e13d 4af8 d73d c036 51bc
000000d0: 0886 b63d 80fe f93c a22f b3bd 4022 a23c
000000e0: d039 c53c 86d3 81bd 08c0 8dbc 5485 233d
000000f0: dca8 2b3d e09a 7dbd 6495 633d 44bf dcbd
00000100: b0ff ffbd e4ba 85bd dc0f 983d 8023 e7bb
00000110: d44e 093d a8a9 f6bd 902b ebbd ac52 c1bd
00000120: 5680 aebd 7874 9c3d f4d0 333d 9cf3 b4bd
00000130: 4030 e6bb 5457 84bd 4e48 aabd 5227 913d
00000140: 6c89 0a3d 1a1b a7bd 00c1 563d e0f8 f4bc
00000150: 6c6e 4bbd 86c3 ca3d 7404 363d 00f1 293b
00000160: c8e6 e43d 08e3 913c a6b7 febd 1685 cb3d
00000170: 9475 a53d f071 113d b0c8 c23d 9ac8 b63d
00000180: 1ab9 ad3d 56d5 a7bd 30fc 323c 5647 ddbd
00000190: 92b9 af3d c076 0abb 727d 9e3d 988d e2bc
000001a0: 369e a63d 200a 873b 2ce5 243d 30be 733d
000001b0: ac59 8b3d 8681 f23d ce6a 873d 1c1d dd3d
000001c0: 00c2 a73d 80d7 efbb 9444 7abd 90d3 dd3d
000001d0: ba69 a43d 8cf2 b43d 1e47 88bd 2c23 bb3d
000001e0: d094 06bc d8ff 753d 2668 d5bd 3608 8e3d
000001f0: e0b8 a83c 98a0 dd3c 8c38 a13d 804b c5bb
00000200: 341a 603d 1c51 ce3d 205f cbbb c86a 9ebc
00000210: c863 1f3d 42b8 c8bd f44f 0a3d 4252 d3bd
00000220: 58ca 25bd 1afd fabd c69d b5bd 70bb a3bd
00000230: c03e a93c 9867 3ebd d2c2 8c3d 8a70 83bd
00000240: a270 fabd 5082 c23c b4ab efbd 20a6 3abc
00000250: 4ab2 e5bd 347a 32bd 3e79 e73d 70e0 033d
00000260: 18bf 2d3d a8e0 94bc 1ef6 f63d 92d0 9cbd
00000270: 6084 0c3d 347a 18bd 509c fa3c 2cbe a2bd
00000280: da96 83bd 2e26 e63d 4a79 923d fc6e bebd
00000290: 50c4 6ebd b43d 13bd 401f 163d 2092 b0bd
000002a0: bac4 f7bd 0c7c 6bbd eef6 e43d 7ed0 a93d
000002b0: 4e68 cabd 4035 f1bc c44a f03d 969f 9c3d
000002c0: d065 e7bd ee54 87bd ecec 58bd a6f3 f93d
000002d0: 28b3 fdbd 1c53 8dbd 842e a3bd 68e4 5ebd
000002e0: 503e 68bd 3003 203c e466 99bd 106e 8bbd
000002f0: 580c 25bd 9cfd 3f3d b079 c03c 5cb6 84bd
00000300: 5ae6 d9bd 9616 cfbd e641 c73d c860 f43d
00000310: 106d d13d e040 953b 74db 193d 507d 12bc
00000320: 5635 80bd 08ba dc3c 4006 fcbc ca32 c1bd
00000330: 2476 923d a6de 903d 48b1 cdbc 0045 d7bc
00000340: 04f9 263d 6eb4 d13d 1e78 de3d daf2 b6bd
00000350: 2c79 123d 1ce7 cf3d 2a88 cebd 4429 c9bd
00000360: e046 633d aaab dc3d 205f 9cbd c46e 123d
00000370: be04 b63d e414 9d3d 587d bdbd 58ad 7abd
00000380: 44e7 973d a400 a4bd 8698 c53d bc3c 8f3d
00000390: c0b7 23bd d08f 7a3d 444c 4d3d 9679 9e3d
000003a0: 724a e8bd 7453 cd3d c0f9 85bb 9852 cdbc
000003b0: 704c 02bd 90da a8bc 0450 d8bd d01b adbc
000003c0: 8825 d73c 10b1 e4bd e88f 81bd 004a 8e3d
000003d0: 145c d2bd 5e11 b6bd 6291 c4bd 10fc 02bd
000003e0: 5867 833c 000e 56bd 063e f03d 047f 9fbd
000003f0: 00c6 c73a 5c1a 7d3d 48b0 6e3d 9033 043c
0.06252886 0.07396968 0.0001770407 -0.071611285 -0.10815431 0.08997603 0.07821567 -0.00415197
-0.05683124 -0.031025514 -0.04206349 0.07130802 0.012823656 0.11731541 0.11015484 0.019405022
0.018220052 0.0030194968 0.074095264 -0.0065950006 -0.014238179 0.124046296 0.024964496 -0.12276122
-0.09041241 -0.02892138 0.12084463 -0.029134214 0.10076389 0.07657346 -0.08550006 -0.0051122606
-0.09446232 -0.022571012 0.11664842 0.0580142 0.052265257 -0.05599971 0.041891143 0.108784035
0.0723601 -0.062744096 0.118656605 -0.008192673 -0.11397922 -0.0330465 -0.025385916 -0.005562514
-0.085745856 0.10991132 0.10545404 -0.012769401 0.08912283 0.030516863 -0.087493196 0.019791722
0.024075419 -0.06339173 -0.017303482 0.039922073 0.041909084 -0.06191528 0.055562392 -0.107786685
-0.124999404 -0.06529787 0.074249 -0.0070537925 0.033522442 -0.12044078 -0.11482918 -0.094395965
-0.08520572 0.07639402 0.043900445 -0.08835527 -0.007024795 -0.06461969 -0.08314572 0.07087578
0.033822462 -0.08159466 0.052430153 -0.02990383 -0.049665853 0.099005744 0.04443784 0.0025931
0.111768305 0.017808452 -0.12437372 0.099374935 0.08079067 0.03550905 0.09510934 0.089249805
0.08482571 -0.081949875 0.010924384 -0.10804622 0.085803166 -0.002112791 0.077387705 -0.027655408
0.08135645 0.00412108 0.040257618 0.05950755 0.06804213 0.11841111 0.06612168 0.10796568
0.081912994 -0.007319391 -0.061100557 0.10831368 0.08027978 0.08835325 -0.066541895 0.09137568
-0.008214191 0.060058445 -0.10420255 0.0693516 0.020595968 0.027054116 0.078721136 -0.006020963
0.05471249 0.10074064 -0.006206408 -0.019338027 0.03891352 -0.098007694 0.033767655 -0.10318424
-0.040476173 -0.122553065 -0.088679835 -0.07994735 0.020659804 -0.046485513 0.068730965 -0.064179495
-0.12228514 0.023743778 -0.11702672 -0.011392146 -0.112156466 -0.043573573 0.11302422 0.032196462
0.04241857 -0.01817353 0.12058662 -0.07656969 0.03430593 -0.037225917 0.030592114 -0.07946429
-0.06425257 0.11237751 0.0715204 -0.09298512 -0.058292687 -0.035947517 0.036650896 -0.08621621
-0.120980695 -0.057491347 0.111799106 0.0829172 -0.09883176 -0.029444337 0.117330104 0.07647626
-0.11298716 -0.06607996 -0.05296032 0.122046754 -0.12387687 -0.069006175 -0.079678565 -0.054417044
-0.05670005 0.009766385 -0.07490328 -0.06808102 -0.040294975 0.04687272 0.023495525 -0.06480095
-0.10639639 -0.1011173 0.09729366 0.11932522 0.1022588 0.004554853 0.037562802 -0.00894101
-0.06260173 0.026944175 -0.030764699 -0.09433515 0.0715144 0.07073717 -0.025108948 -0.026278019
0.040764824 0.10239492 0.10862754 -0.08933039 0.03576009 0.101515025 -0.10084565 -0.09822324
0.055487514 0.1077493 -0.07635331 0.035750166 0.08887623 0.0767 -0.09252423 -0.06120047
0.07417157 -0.08007935 0.09648232 0.06994006 -0.03997016 0.061172307 0.05012156 0.077380344
-0.11342324 0.10025683 -0.0040886104 -0.025063798 -0.031811178 -0.020612031 -0.10562137 -0.021131426
0.026263013 -0.111665845 -0.06326276 0.06947708 -0.10271469 -0.08890031 -0.09598042 -0.031978667
0.01604049 -0.052259445 0.1173058 -0.07787898 0.0015241504 0.061792716 0.058273584 0.008068934

rnn.bias_ih_l0 f4 [64]
00000000: 9b93 a33d 1e3c c7bd b404 7fbd 7acd 91bc
00000010: c1dd 053d c406 cebd f127 623d 5604 c13c
00000020: f70f b1bd ab14 c83c c6f0 f23d 819f 89bd
00000030: 380f 833d 4cf6 66bd aa5e b63d 5c43 cfbd
00000040: 9432 c53d 1f69 14bc 898e 9b3d 31be cfbd
00000050: 4967 c93d b80c ab3d 3999 023e be3d 03be
00000060: fd71 99bd 98e3 013d 863d 243d 8c40 16bd
00000070: d1ea 8e3a 5656 993d 68df 9f3c 8469 8a3d
00000080: fd7f 38bd 00b3 e2bd 0d19 e73d d799 0abd
00000090: 4ca4 253d 1a5d 51bd 6536 533d 5244 d4bd
000000a0: f107 c53d f84f c3bd fda5 f8bd dbd1 313d
000000b0: b1c6 0b3e 1126 833d 6c51 98bc 8885 763b
000000c0: d69b 873d 5500 a13d ee11 8f3c 8ea7 683a
000000d0: 744e 0abe 46ca e53d 5a59 c4bd 5495 a03c
000000e0: 9165 e4bc 79fe c3ba bcc5 c33b 72fe d1bd
000000f0: 017b c2bd a8c0 0f3d af51 213d 19b3 82bd
0.07987138 -0.09728263 -0.062260345 -0.017798174 0.032682184 -0.10059884 0.055213872 0.023561638
-0.08645623 0.024423918 0.1186233 -0.06719876 0.06399387 -0.05638723 0.089047745 -0.1012027
0.09628788 -0.009058266 0.07595546 -0.10143698 0.09834153 0.08352035 0.12753762 -0.12816522
-0.07492445 0.03171119 0.040097736 -0.03668265 0.0010903721 0.074871704 0.019515708 0.06758407
-0.045043934 -0.11069298 0.11284075 -0.03383812 0.04043989 -0.05111418 0.051565547 -0.103645936
0.09620655 -0.09536737 -0.12141035 0.043413024 0.13650014 0.06403745 -0.018593512 0.0037616212
0.0662152 0.078613915 0.017464604 0.0008875065 -0.1350649 0.11220221 -0.09587355 0.019602455
-0.027880462 -0.0014953158 0.0059744995 -0.1025361 -0.094961174 0.03509584 0.03938454 -0.063818164

rnn.bias_hh_l0 f4 [64]
00000000: 1578 223c 229d d8bd b126 be3d 7596 97bc
00000010: eb16 a23d 20b2 debd fbe2 b03d 7f5a 393d
00000020: 8270 523d 6d6a 79bd 1814 7c3d 2feb 193d
00000030: 513b b2bc c476 9fbd a645 b03d 11e1 3cbd
00000040: d363 903d 6c83 92bc 085c 033c b4ae 173d
00000050: 79a4 abbd 433c 47bd 0ae4 863c bbef 8cbd
00000060: 87a5 933b 984d 28bc b743 7a3d 04b9 eabd
00000070: 629b 6d3d 0b19 adbd 6c4e c43d 697a 6bbc
00000080: 8339 3e3d 7ccb ad3c b0dd 803d 4ef4 68bd
00000090: 5efa c13c cb3c 8cbd 298e 72bd 3e36 eb3d
000000a0: fb41 a63c 4325 e8bd 41f8 b63d 32c5 abbd
000000b0: 4aec eeba df81 cb3d 6b04 473d 1d9e 423c
000000c0: d46d 963d fbbd e33d 0dc7 9d3c 0ac3 053d
000000d0: 256e aa3d 2d69 82bc 405d 51bd 6b7e 83bd
000000e0: 4787 a6bd c944 e33d e86a f5bb 3294 373d
000000f0: e292 7c3d 05f3 28bc 79f0 c1bc 69f4 813d
0.009916325 -0.10576846 0.092847236 -0.01850436 0.079145275 -0.108738184 0.08637043 0.04525232
0.051376827 -0.06089251 0.0615426 0.037577804 -0.0217568 -0.077863246 0.086070344 -0.046113078
0.0705029 -0.017884932 0.008017547 0.037031844 -0.0838098 -0.048641454 0.01646616 -0.068816625
0.0045058164 -0.010272406 0.061099734 -0.1146107 0.058009513 -0.08452042 0.0958527 -0.014372447
0.046441566 0.021215193 0.062922835 -0.056873612 0.023678955 -0.06847533 -0.059217606 0.11484955
0.020295134 -0.11335232 0.089340694 -0.083872214 -0.0018228379 0.0993688 0.048588198 0.011878517
0.07345167 0.1112022 0.019259954 0.032656707 0.0832179 -0.015919292 -0.05111432 -0.06420597
-0.08131271 0.11097104 -0.007489551 0.044819064 0.061663516 -0.010311847 -0.023674237 0.06345446

rnn.weight_ih_l1 f4 [64, 64]
00000000: a565 85bd 8eb8 0d3d 0618 6d3c 855f d33d
00000010: 6783 70bd 701b ea3d be09 77bd 6bba 76bd
00000020: ae69 693d c5c4 80bc be15 f3bd e9f8 84bd
00000030: 510c 7a3d aa6f d23d bf64 103c 140f 173d
00000040: ba5b 643b e339 4d3c 5264 2d3d 5989 923c
00000050: d0d0 9bbd 6db7 993d 592a c83d 6bce a03d
00000060: 2c9a 25bc 8792 c43d d05f 31bd d786 ab3c
00000070: ffd8 c73d 453c e63d e66e c1bd 4f1f b6bd
00000080: 85df f93d 11a8 9b3d 0e88 4fbd b184 ce3d
00000090: 6434 26bd 18d5 3f3d bd15 c6bd 2dc1 de3d
000000a0: bc21 ef3c d47c d4bd 2b64 67bc 18d4 043e
000000b0: 0619 ba3d 47fb 84bd 6c4b 88bb 21e9 a73d
000000c0: 61ea b33b 461e 7b3a e7b3 f13d ae42 be3d
000000d0: 8070 5cbd 63bc 3f3d d486 3b3d 75b0 b5bd
000000e0: b653 283d 5917 8c3c 2322 df3d 40ff 96bd
000000f0: 9ec9 4d3d e723 ad39 14a2 c23d ccc5 3a3d
00000100: 88fb b6bd dbbf 46bc ac31 1ebd c4ac f2bd
00000110: a948 d7bc bfbf f9bd a684 bbbd 55a1 e53d
00000120: 5b8a f1bd 8e68 94bd b18e 083d d311 243d
00000130: ba22 96bd ebb7 8c3d ddad 993d c20d b9bb
00000140: 478b 293e b321 843d 2bd2 4c3d ba17 863d
00000150: e8b9 cd3b 8641 043e d861 073e 0f12 14bd
00000160: 5130 543d 5faf e6bd cf06 60bd 6d46 ec3d
00000170: a6a2 453d 850e 63bc a5be dabd b4ac 02bc
00000180: d618 053e 83ba 01be 8d43 c1bd 67d8 143d
00000190: 74d1 3b3d d832 26bd a04b 4e3d a17e de3d
000001a0: 3b77 3abd 5178 29bd fad6 2e3d e82f b0bd
000001b0: 2c2b 0e3e 0483 223e 849f 47bd 6050 94bc
000001c0: 7f36 52bd a1c4 023b 753e 1f3e 065c 483d
000001d0: 52af 7bbd c01e 0fbe 320a b63d 6255 afbd
000001e0: a0d5 c9bc 37a0 583b 0adf 03bd 3e04 8ebd
000001f0: 76ff 623d 057a 68bd 6c66 bbbc 896f c73d
00000200: 15ca 32bc bf4c d73d d116 54bd 6b0d a1bd
00000210: 9c90 053e ea17 59bd 0779 a63d 9eb5 5f3d
00000220: b9af 663d 8910 4e3d 343a c93d d009 b33d
00000230: a0df 083e 502e 953d 7de6 0ebd af97 2f3c
00000240: 164a 32bd b58a eebc 3f04 ab3d 9b53 bebd
00000250: 2b3f 0c3c bdcd 043d 6b9d 8ebd 3436 983c
00000260: 3168 e9bd c955 173c ccc8 bebd f2bd 213d
00000270: 5aa1 00bc 576d bdbd 85d9 d23d f7fb b13b
00000280: 080c 2cbd 7b2d da3d 47af ddbc 2dac 823c
00000290: cb6a f93d dcc9 c1bc ea01 8bbd 9ce0 033e
000002a0: f8bb b63d 220b f33d 3225 06be e95a 0a3e
000002b0: 775a aa3d cd52 903d f79c cd3d 0e84 c33d
000002c0: 13e9 a1bd 0dd5 863d 8fe1 013e f485 003e
000002d0: 6b66 e6bc 7c0b 51bd 479d 09bd 5771 00be
000002e0: 8182 83bd 22a1 42bd a94d dc3d e1b1 18be
000002f0: 98bc 8abd 6d12 03bd 77ad 4abd 5b90 dc3c
00000300: 212b 9cbd 60a1 ac3d 47ef 76bd 98ea d53d
00000310: b8d9 9fbd 601a 573d 0b25 d93d 9989 ba3d
00000320: f4e0 10be 8a25 c63d 8f62 4e3d 2219 62bc
00000330: 0f8b 8b3d cd9a 97bd fa55 df3b 2ad5 5fbd
00000340: 1ce0 01bd 036c da3d 2891 cf3d f07f fabc
00000350: 3f81 3c3d 9af5 ac3d b4f7 023e 75df c2bd
00000360: 9695 4c3d 2bc0 a2bd efea 0a3d 09d9 263d
00000370: 6f7b 073d 86fc 923d af08 86bc cb31 613d
00000380: b633 dbbb e256 85bd 09cc eabd 8304 063e
00000390: e2e2 10bd 756d e33d c021 ea3b 541b 263d
000003a0: 6a0e 1d3d 2ebb 8c3d 2cd3 1ebd 577c 563d
000003b0: 7e32 ca3d 304e 82bd 6031 31bd 8ce6 07bd
000003c0: 261f 37bd 9d75 62bd fdfc 08bc a50a 983d
000003d0: b05d 533b 02c9 283d 16b3 af3c 80a1 0fbd
000003e0: 80a8 40bd a0cc acbd 0814 0c3d c484 8bbc
000003f0: 4881 b83d 6345 e13c 1487 ac3d 5e97 1b3d
-0.06513528 0.034599833 0.01447106 0.10320953 -0.058719065 0.114310145 -0.060312025 -0.060236376
0.05698555 -0.015718827 -0.11869381 -0.06492788 0.061046902 0.102752045 0.008813082 0.036879614
0.0034844712 0.012526008 0.042332 0.017887758 -0.07608187 0.07505689 0.09773702 0.07851871
-0.010107558 0.095982604 -0.043304265 0.02093832 0.097581856 0.11241964 -0.0944498 -0.088926904
0.12200836 0.076004155 -0.05066686 0.100839026 -0.040577307 0.04683408 -0.09672115 0.10876689
0.02919089 -0.103753716 -0.014123003 0.12971532 0.09086804 -0.0649324 -0.0041593816 0.08198763
0.0054905866 0.0009579401 0.11801892 0.09290062 -0.053818226 0.04681052 0.04578288 -0.08871547
0.041095458 0.017100977 0.10895183 -0.07372904 0.050241105 0.0003302388 0.0950357 0.04559879
-0.089346945 -0.012130703 -0.03862159 -0.11849359 -0.026279764 -0.12194776 -0.0915616 0.11212412
-0.11793967 -0.07246505 0.033339206 0.04005606 -0.07330842 0.06871017 0.07503865 -0.005647392
0.16557036 0.0645174 0.05000512 0.06547494 0.0062782653 0.1291562 0.13220918 -0.036150035
0.05180389 -0.11263918 -0.054693993 0.1153687 0.048250817 -0.013858442 -0.10680894 -0.007975746
0.12997755 -0.12668805 -0.094367124 0.03633919 0.045854047 -0.040575832 0.05036509 0.10863996
-0.045523863 -0.04137451 0.042685486 -0.086028874 0.13883656 0.15870291 -0.04873611 -0.018104732
-0.051321503 0.0019953626 0.15551169 0.048915885 -0.061446495 -0.13976574 0.08888663 -0.08561207
-0.024637997 0.003305448 -0.03219513 -0.06934403 0.055419408 -0.056756992 -0.022875987 0.097380705
-0.010912438 0.10512685 -0.051779572 -0.078638874 0.13043445 -0.05300132 0.08128553 0.054616563
0.056319926 0.050308738 0.098255545 0.08742106 0.13366556 0.07284224 -0.03488778 0.0107173165
-0.043527685 -0.029118875 0.08350419 -0.0929329 0.008559982 0.03242277 -0.06963619 0.018580534
-0.11396826 0.009236761 -0.09315643 0.039487787 -0.007850969 -0.092493705 0.10295395 0.005431648
-0.04200366 0.10653206 -0.027061118 0.01595124 0.12178572 -0.023655824 -0.067874745 0.1287865
0.08922571 0.11867358 -0.13100126 0.13511242 0.08318036 0.07047043 0.10039704 0.09546672
-0.079057835 0.06583605 0.126837 0.12551099 -0.028125009 -0.051036343 -0.033597257 -0.12543236
-0.06421376 -0.04751695 0.10757 -0.14911605 -0.06774253 -0.031999994 -0.049481835 0.026924303
-0.07625414 0.08429217 -0.060286786 0.10445136 -0.078051984 0.052515388 0.106027685 0.09108276
-0.14148313 0.09675129 0.05038696 -0.013799937 0.06813633 -0.07402573 0.006815669 -0.05464665
-0.031707868 0.10665133 0.10135108 -0.030578583 0.046021696 0.08445282 0.12789804 -0.09515277
0.049947344 -0.079468094 0.033915456 0.040734325 0.0330767 0.07177071 -0.016361563 0.054979127
-0.006689514 -0.06510712 -0.11464698 0.13087659 -0.035372622 0.11104862 0.0071451366 0.040553406
0.038343824 0.06871639 -0.038775608 0.052364673 0.09872912 -0.06362569 -0.04325998 -0.03317885
-0.04470744 -0.055287946 -0.008361098 0.07423905 0.0032251887 0.04120732 0.0214477 -0.035066128
-0.047035694 -0.084374666 0.03419879 -0.017031081 0.090090334 0.027498906 0.084242016 0.037986152

rnn.weight_hh_l1 f4 [64, 64]
00000000: e8d6 b9bc 8402 46bd 408a bcbd 10c7 613d
00000010: 0c86 263d 70db 4b3d 54f9 53bd 14cd 7dbd
00000020: 1ee3 ed3d 7ad8 bbbd 5869 cabc 60af 60bc
00000030: 6a0f 953d 407d 5cbc 208c 49bd 1011 38bc
00000040: 28b6 d73d 1a69 ecbd 1240 c43d 2831 1bbd
00000050: 20b8 bc3c 06ae 86bd 64ee 003d 32e9 853d
00000060: d0e0 3ebd 48fe 8f3d 604a ca3d 5422 623d
00000070: 462b f73d 6ec4 913d 585b 5dbd 480c 323d
00000080: 0017 613a e8bb edbd 10f0 573d 0217 ae3d
00000090: 9046 98bc d85a a4bc 6001 3bbd 7432 fbbd
000000a0: 14cc abbd bcef 0abd 0076 9d3b 44de f0bd
000000b0: 28e5 d9bc b05e 25bd 84f4 edbd a024 5fbc
000000c0: 08ba 51bd d685 9fbd 801f b53b c059 b7bb
000000d0: 48f5 d23c c86b f3bc 647c d43d 00f2 8eba
000000e0: b498 e53d 0005 773c 44a0 d2bd 2c60 28bd
000000f0: 4e53 dcbd 1cc0 93bd 8229 8c3d c8b8 cc3c
00000100: d4eb 95bd 24e0 63bd 9604 d03d 1492 2ebd
00000110: 284e 2c3d d6eb cabd 60d7 ea3c 0454 d5bd
00000120: 78d9 e93d 04fe c83d 1877 4fbd d6fe 86bd
00000130: 926b d4bd 980f b8bc 5c04 723d d4c7 e8bd
00000140: 1eba f93d 4e1b bc3d ca0a 9a3d 2c72 3cbd
00000150: b000 eabc e846 eebd 7e99 c33d 1872 3d3d
00000160: e010 cf3b 4e24 db3d ac90 debd e0ca f63c
00000170: b286 da3d 48c2 253d ae0f afbd cea2 cfbd
00000180: 6c55 cf3d 0034 39ba 5cc2 ff3d 66ff fd3d
00000190: 2827 5fbd 0027 f73c f888 f43d ba49 e1bd
000001a0: 26e8 843d f8b7 8d3d 9cbc cd3d beee d8bd
000001b0: c692 9ebd 94c6 873d 4cfa e53d c080 18bd
000001c0: d070 d2bd 1419 6abd e0e1 fc3d 9cdc 43bd
000001d0: 8e3d bf3d 80e9 fdbb 0889 b0bc 78a3 fd3d
000001e0: 9cf6 29bd 9e49 97bd 7a91 a6bd d6c0 893d
000001f0: 7af7 96bd d06c b83c e0eb f93d 200a 12bc
00000200: 1838 e9bd 58b8 873c 7a3c a4bd 3007 7d3c
00000210: c448 813d e444 f8bd 882c c93c 8060 e0ba
00000220: 36ac c9bd 80e9 ee3d d004 7b3d 40b3 b73b
00000230: c033 883d a8a6 2fbd 0843 13bd 58ea 9abd
00000240: d885 b23c 2083 dabb f057 f3bd 8686 b4bd
00000250: c09d e3bd 84bb 523d 983d b33c 5647 a33d
00000260: 84ff 3b3d 14a1 e93d 6c7b ba3d a016 c1bd
00000270: 40fa 28bc f0b2 4bbc a8da 3dbd 3c8f 473d
00000280: dc97 38bd 609d 7dbd d691 f83d 742a 303d
00000290: 069e 80bd b89b dbbc a45a 553d 20c7 f93d
000002a0: c015 64bc 1072 113c 9061 18bd 188c 7f3d
000002b0: 0843 ca3c b42a aa3d b4ce 54bd 4e7b 80bd
000002c0: 169e c6bd 7049 0fbd 6049 28bc 20e4 0f3d
000002d0: a01c 0a3d ccde efbd 467e 83bd 54e0 36bd
000002e0: d8be 2a3d 9cfc 9dbd 5e9c d23d 50ec ce3c
000002f0: 62ff f63d 40bd b83b 483a 8dbc a868 edbd
00000300: 8089 abbd a076 943b 887e e73c c487 8e3d
00000310: d2e8 8a3d 000d 9c3c 1c88 633d a8fd adbc
00000320: 1c8f 45bd 4400 9f3d 904b b13c e24d d2bd
00000330: f8f8 993d f610 85bd d489 b2bd 7068 763c
00000340: 6ca5 e0bd 0033 513b e273 b9bd b25e a13d
00000350: 9086 c9bc 6a6e 803d f0cb 583d 5cfb febd
00000360: f08f 653c e651 cebd c4ba 0e3d 8cf3 19bd
00000370: 0082 a839 604e 82bb 24d5 38bd 108d ecbc
00000380: 76d8 b63d 5225 a23d 3a3a d73d 40e1 2c3b
00000390: a65f ad3d 147b d13d 8210 dabd 1000 d33d
000003a0: 38c7 d03d 4a61 f3bd e8b6 dc3c 0c0e cebd
000003b0: 30af 2abc d8c3 8b3c 7004 99bc 6c37 2cbd
000003c0: 6849 1b3d 4aff cebd 5cfc e3bd da8f db3d
000003d0: 22c2 b13d 1edf c1bd 62e3 fe3d 1cc1 023d
000003e0: 784f 343d e258 903d f81b adbc e030 e3bb
000003f0: ec5b 953d bedb d43d 50a2 993d a09c 2cbd
-0.022685483 -0.048342243 -0.092060566 0.05512148 0.04065518 0.04976982 -0.05175145 -0.061963156
0.11615585 -0.09172149 -0.024708435 -0.013713688 0.072783306 -0.013457596 -0.0492059 -0.011234537
0.105327904 -0.11543484 0.09582533 -0.037888676 0.023037016 -0.06576161 0.031477347 0.06538619
-0.046601117 0.07030922 0.09877467 0.05520852 0.12068801 0.07117544 -0.05404219 0.043468744
0.0008586496 -0.11608106 0.052719176 0.08500482 -0.018588334 -0.020062849 -0.04565561 -0.122654825
-0.08388534 -0.033920035 0.0048053265 -0.11761144 -0.026598528 -0.040373504 -0.11618903 -0.013619572
-0.051202804 -0.07789199 0.0055274367 -0.005595416 0.025751725 -0.02971448 0.10375288 -0.0010905862
0.112107664 0.015076876 -0.102844745 -0.04110734 -0.107580766 -0.07214376 0.068438545 0.024990454
-0.07320371 -0.05563368 0.10157125 -0.04261978 0.042066723 -0.099082634 0.028667152 -0.10416415
0.11418432 0.09814075 -0.050650686 -0.06591575 -0.1037208 -0.022468373 0.05908619 -0.11366239
0.12193702 0.091848955 0.07521589 -0.04600732 -0.028564781 -0.11634618 0.09550761 0.046251386
0.0063191503 0.10700284 -0.10867438 0.030126035 0.10670222 0.040468484 -0.085479125 -0.101384744
0.10123715 -0.00070649385 0.12488243 0.12402229 -0.0544807 0.030169964 0.11940187 -0.1100039
0.06489591 0.06919855 0.1004574 -0.105924115 -0.077428386 0.06629673 0.11229381 -0.03723216
-0.102754235 -0.057152823 0.1234777 -0.04781781 0.093379125 -0.0077487826 -0.021549717 0.12384695
-0.04149495 -0.07387088 -0.08133216 0.06726234 -0.07371421 0.022512823 0.12203193 -0.008913547
-0.11387652 0.016567394 -0.080193475 0.015443608 0.06312707 -0.12122515 0.024557367 -0.0017118603
-0.098473 0.1166563 0.061283886 0.005606085 0.066504955 -0.042883545 -0.035952598 -0.07564229
0.021792337 -0.0066684633 -0.11882007 -0.08814721 -0.11114073 0.05144836 0.021879956 0.079725906
0.045897976 0.11407676 0.09105572 -0.094281435 -0.0103135705 -0.012432799 -0.046351105 0.048720583
-0.0450667 -0.061917663 0.12137191 0.043009236 -0.062801406 -0.02680765 0.052088395 0.12196183
-0.013921201 0.008877292 -0.037202418 0.062389463 0.024690166 0.08308926 -0.05195494 -0.062735185
-0.09698121 -0.034982145 -0.0102714 0.035129666 0.033718705 -0.11712417 -0.06420569 -0.04464753
0.04168591 -0.07714197 0.10283731 0.025259167 0.12060429 0.0056377947 -0.017239705 -0.11592227
-0.083758354 0.0045307428 0.028258577 0.06959489 0.06782688 0.019049168 0.055549726 -0.021239117
-0.048232183 0.077637225 0.021642476 -0.10268761 0.0751819 -0.06497376 -0.08717695 0.015039548
-0.10969052 0.0031921268 -0.09055306 0.0787939 -0.024600297 0.0627106 0.052928865 -0.12450287
0.014011368 -0.10074215 0.034846082 -0.03758578 0.00032140315 -0.003976628 -0.04512514 -0.028875858
0.089280054 0.079172745 0.10509153 0.0026379377 0.08465509 0.102285534 -0.1064768 0.10302746
0.10194248 -0.11883791 0.026942685 -0.10061273 -0.0104177445 0.017061159 -0.018678874 -0.042045042
0.037911803 -0.10107286 -0.11132118 0.10720797 0.08679606 -0.09466384 0.124457136 0.031922445
0.0440211 0.07048203 -0.0211315 -0.0069333166 0.07292923 0.10393475 0.07501662 -0.042141557

rnn.bias_ih_l1 f4 [64]
00000000: a039 9a3d 96cf cebd 7035 7d3d f307 34bd
00000010: 2f5f be3d 2b0a 05bc 928c d13d 5212 d4bc
00000020: 594c 0d3d ddb2 8c3c 5a0c 173c 3df0 b53d
00000030: c6ff 713d 56b6 dbbd 41a9 703d 91c4 ecbd
00000040: c3c0 33bd e68c d9bd 1863 6ebd 6da7 8c3d
00000050: 543d 9bbc 2689 533d 72c0 b3bd 94be 443d
00000060: 3876 34bd 69b5 febc 7a10 fd3b ee0f ed3d
00000070: 8392 cc3d fb1e 8fbd 32eb 8a3d adab ae3d
00000080: fa68 b2bd deac e13c 351e f9bd c8c1 7abc
00000090: 1eb2 e73d 2b36 c53d fbda dc3c cff9 2f3b
000000a0: 4587 523d 1577 2abd 5138 2ebd d136 f63d
000000b0: 0c20 c0bc 3b62 80bd 0dfc 0fbd 6d4e bb3d
000000c0: 5882 cb3d 1831 36bc 29f0 793d 7561 363d
000000d0: 9477 9e3c 6442 ee3c 9881 cdbd ff3e 4e3d
000000e0: 2209 c83c 23c9 f33b 6fd2 e1bd 53b9 023e
000000f0: ca8e ce3c 2a5f d73d 02a9 a33b 76d9 053b
0.07530522 -0.100981876 0.06181854 -0.043952893 0.092954986 -0.0081201 0.1023189 -0.025887642
0.03449664 0.017175132 0.009219253 0.088837124 0.059081815 -0.10728137 0.058755163 -0.115609296
-0.043885004 -0.10622577 -0.058199972 0.068678714 -0.018950142 0.051644467 -0.087769404 0.048033312
-0.044058055 -0.031092362 0.0077229114 0.11575304 0.099888824 -0.06988331 0.06783141 0.08528838
-0.08711429 0.02754825 -0.12163965 -0.01530499 0.1131327 0.09629472 0.026959887 0.0026851778
0.051398534 -0.04161747 -0.042534176 0.12022174 -0.023452781 -0.06268736 -0.035152484 0.09145818
0.099369705 -0.011120103 0.06102005 0.044526536 0.019344129 0.029084392 -0.10034484 0.050353047
0.024418417 0.007439749 -0.11026465 0.12766008 0.025214572 0.10516198 0.0049945125 0.0020423806

rnn.bias_hh_l1 f4 [64]
00000000: e2af 9dbc 6677 a1bd cb5f 873c 0865 85bd
00000010: 5b51 c73d ff6a bf3d 72f2 e13d 20fb a3bc
00000020: 9c92 5d3d 5f2a c83d 9e39 6abd 79a1 c8bd
00000030: ecdf 0bbe b76c 563d b7a8 96bd 32bb 823d
00000040: 3608 d8bd aaba a93d 4c11 7dbb d9b4 b6bd
00000050: d6f4 d83d 8a56 1f3a 261c d0ba 7f5b d3bc
00000060: 3522 f03d c5a0 2e3d 50c2 ce3d a675 2fbd
00000070: d5a0 64bd f1da ec3d 7cbf 82bd 3b6a f4bd
00000080: 0a62 883d ff8b 86bd 9b51 9e3d 461d d0bd
00000090: 327c 9c3d bc67 803d 00dd e73d c569 80bd
000000a0: 8a62 cb3b 0874 31bd d19c fbbb 644b 103c
000000b0: b1d6 223d 5386 81bd ac90 a4bd 993c 9bbd
000000c0: 0e7f be3d b55c 053e d6a4 fbbd 36f9 ffbd
000000d0: b439 33bd d3f5 4f3c e532 66bc 25c2 913d
000000e0: 96e4 fe3c a8ac d93d 6dc0 80bc b041 8a3c
000000f0: 9a01 c93d a11a 163d b1bb 26bd 8851 6cbd
-0.019248907 -0.078841016 0.01652517 -0.06513411 0.09732314 0.0934658 0.11032571 -0.020017207
0.054094896 0.09773707 -0.057183854 -0.097964235 -0.13659638 0.052349772 -0.073563986 0.06383361
-0.10548441 0.082875565 -0.0038615046 -0.08921213 0.10593574 0.0006078264 -0.001587753 -0.025800465
0.117252745 0.04263379 0.10095656 -0.042836808 -0.055817444 0.11565197 -0.06384179 -0.11934324
0.066593245 -0.06569671 0.07730409 -0.101618335 0.07640876 0.06269786 0.11321449 -0.06270174
0.006206815 -0.043323547 -0.007678606 0.008807037 0.039755527 -0.063244484 -0.080354065 -0.075799175
0.093015775 0.13023646 -0.12287299 -0.12498705 -0.043756202 0.012692886 -0.01405022 0.07117108
0.031114858 0.10628635 -0.015716756 0.016877025 0.098147586 0.03664649 -0.04070634 -0.05769494

rnn.weight_ih_l2 f4 [64, 64]
00000000: b5ad 5a3d 1470 40bd 96ce 673d fef8 973b
00000010: 20f1 883d 9443 c03d a069 d13c 33ac 8bbd
00000020: e939 a43b 37b7 c2bd e2ec 70bc 4ef9 07be
00000030: 4122 a03d 6135 2dbd 40d1 c23d 1836 f4bd
00000040: 4f86 fa3d 875d f2bc a5f0 d63d b218 c53d
00000050: e86c 9dbd 31e9 14be 4c49 7fbd 76f5 f8bc
00000060: ce05 e8bd 8230 733d 1aeb d93b 3483 223b
00000070: 43f9 8fbb 5ae8 eebc 5ffa a03d d5bc 17bd
00000080: a750 b03d 3a69 8b3b d9d9 1cbd 4027 35bc
00000090: 1d43 c83c 338f 2d3d 77e6 b7bd 5b7c c63d
000000a0: fa6d 5abd c64a e7bc ea93 f1bc 38d5 1d3c
000000b0: 60a4 8a3d c5d7 cebd 0545 99bd 49c1 cebd
000000c0: 0f2b a4bd a375 3dbd 773a f93c e942 af3d
000000d0: 4d56 ae3d 0484 a83a 6036 88bc 563d 05bd
000000e0: e054 343d 0f97 a4bd 6796 763d a684 d8bd
000000f0: 2f4c 4a3d c038 01bd f5fa 63bc 93c2 663d
00000100: ef90 9b3d c33c 863d 5b2a a53d 0c6b cabd
00000110: 781e c9bc ed67 483b a5bd 813d 0eaa 6fbd
00000120: 2cb9 e53d 6220 c8bd 2b64 1a3e e142 eabc
00000130: f5fb 543d 31d4 c33d d385 cdbd fd9c ba3d
00000140: f544 cfbd 949e 99bd a59d cbbd e116 353d
00000150: 83ae 883b b0c5 513d 525f 8b3d ba83 a23d
00000160: 9725 fe3d 143c 723d 0ab9 10bd 6bf7 95bc
00000170: 767c 98bd cfbc 9c3d 0138 d93c d2ed 9a3d
00000180: c690 11bd e3ab 0abd e8a2 afbd 5654 d3bc
00000190: 0b3d ca3d 330a 343d a109 a43d cbbc d63c
000001a0: 620f 98bc 5d3d c9bc a44b 633b 171c 53bd
000001b0: d618 be3d a6d0 7bbc 93e7 783d 65d8 c0bd
000001c0: b9a2 d83d 5ff6 2abd 8c90 86bd 6cb5 1b3c
000001d0: c6f4 cabd 5a0d 433d 61b9 0a3d 1c1b 093d
000001e0: 0dcc e43c b0df 82bc fd35 11be 7d00 8bbd
000001f0: e61e 05be a4f1 a4bb 808c a13c e40a dc3c
00000200: 126d 3ebd 70dc 4c3b 87a2 9b3c 9fca 15bc
00000210: c888 cebd 118e 8ebd b617 aa3d 527d c83d
00000220: e386 9ebd 7f6f d43d 776d db3d 9476 36bc
00000230: b7e0 6e3d abaf 9f3d 4cce ae3d f077 a83d
00000240: 4aa4 8b3d 9cfa 863d 726c 9d3d c46b 47bd
00000250: e86c 813c d3da 033e f2d1 fb3d a914 d0bc
00000260: 215a 41bd c9a8 04be 1cae 5c3d 9f4e b0bc
00000270: 4a8b b03d 09ce 263d 8de8 19bc 752c 1dbd
00000280: 3074 853d 7a37 103d 753a e1bc 0ffd b53d
00000290: b75d 393d 3e66 c03d 9751 5b3d 8851 4fbd
000002a0: 0700 f63d 1240 0dbe c298 e6ba 7806 673d
000002b0: b4c8 ad3d f920 f43d 0aea e63d 6c06 033e
000002c0: db81 debd 303a 3abd 2b44 143d 9ab9 17be
000002d0: 7b0c 0abd d64e f3bd c3cb 56bc ff5a ffbd
000002e0: 540e d0bd 3a1a b8bd 3c08 0cbe 9391 813d
000002f0: 8ede cfbd 4259 c03d cde7 e33d a04a 413d
00000300: 819f 8fbc 260e 66bd 9af3 703c 11d0 dbbd
00000310: dc68 febc 29be a7bd 9393 e63c 6fa3 15be
00000320: 116c 82bc 94e7 89bd f637 a63d ad39 fdbd
00000330: ffad 323d 6ea4 af3c 3e45 a33d 720f dcbc
00000340: e0e8 003d 7884 b2bd d1a2 0e3e 2e6f 963b
00000350: d8b5 b63d 601b 93bd 24a8 a6bd fee4 e5bd
00000360: c41d 9d3d 2fef 1ebd 74e9 3a3d 71c2 00bd
00000370: 38d1 c3bd 67ef fa3d 51ea 80bb 2c6f 283d
00000380: da79 8cbd a3a5 4abd 41ca ce3d e92a ccb8
00000390: 19ab 913d fc2a 98bd 28f9 d1bd b1b1 82bd
000003a0: a3c4 923c b911 053e 77cd b63d cda8 1c3d
000003b0: 44ba a2bc 4e9e 953d 4d21 77bd 3c5d 113d
000003c0: 9a7e 4c3c 9c41 d6bd c1a3 6cbd 340a 383d
000003d0: 7cfa 203c 800a 0b3e 1505 94bd ad7d d13d
000003e0: 1b06 053e f412 c5bd c5ad 333d a93f 5dbd
000003f0: 2d43 a43b 4d54 d8bc e38a 5b3d 68e3 923d
0.053388316 -0.046981886 0.0565935 0.0046378365 0.06686616 0.093878895 0.025563061 -0.06819954
0.0050117862 -0.09507602 -0.014704915 -0.13278696 0.078190334 -0.042287234 0.095125675 -0.1192438
0.122326486 -0.029585613 0.10495118 0.09623851 -0.07686788 -0.1454208 -0.06232576 -0.030390482
-0.11329232 0.059372433 0.0066503407 0.0024797441 -0.004393728 -0.029163528 0.078602545 -0.03704532
0.08609133 0.0042544873 -0.038293693 -0.011056721 0.024446065 0.042372894 -0.089795046 0.09691688
-0.053327538 -0.028233897 -0.029489476 0.009633355 0.06769633 -0.100997485 -0.074838676 -0.1009546
-0.08016025 -0.046254765 0.030423386 0.08557684 0.08512554 0.0012856727 -0.01662749 -0.032529198
0.044026256 -0.08036625 0.06020203 -0.10572176 0.04938906 -0.03154826 -0.013914813 0.056337904
0.07596003 0.06554558 0.08064719 -0.09883699 -0.024550661 0.0030579523 0.06335 -0.058511786
0.11216959 -0.097718015 0.15077274 -0.028596343 0.051998097 0.09561957 -0.100352906 0.091119744
-0.101205744 -0.075009495 -0.09942178 0.044211272 0.004171194 0.05121392 0.0680529 0.07935281
0.124095134 0.059139326 -0.035332717 -0.018306455 -0.07445614 0.076532 0.026515963 0.07564892
-0.035538457 -0.03385533 -0.08575994 -0.02579705 0.09874924 0.04395504 0.08009649 0.02621307
-0.018562023 -0.024565393 0.0034682536 -0.05154046 0.09282081 -0.01536957 0.06076772 -0.09416274
0.10577912 -0.041738864 -0.06570539 0.009503704 -0.09909968 0.047620155 0.033868197 0.03347312
0.02792933 -0.015975803 -0.14180751 -0.067872025 -0.13000068 -0.0050336886 0.019720316 0.026860662
-0.046490736 0.003125932 0.018998398 -0.009142547 -0.10084683 -0.06960691 0.08305304 0.09789528
-0.07740571 0.10372829 0.10714238 -0.01113667 0.058319774 0.07797178 0.08535442 0.08226001
0.06818445 0.06590769 0.076867 -0.048686758 0.015799 0.12876444 0.12295903 -0.025400477
-0.047205094 -0.12955011 0.05387698 -0.021521864 0.08620317 0.040723834 -0.009393823 -0.038372476
0.06516302 0.035209157 -0.027493695 0.08886158 0.04525539 0.09394501 0.053544607 -0.050614864
0.12011724 -0.13793972 -0.0017593133 0.056402653 0.08485547 0.119203515 0.11275108 0.12795419
-0.10864612 -0.04546565 0.036197823 -0.14816895 -0.03370331 -0.11880271 -0.013110104 -0.12468528
-0.10158983 -0.08989377 -0.13675016 0.06326594 -0.10149871 0.093920246 0.11128197 0.04719031
-0.017532112 -0.056165837 0.014706517 -0.10733045 -0.03105586 -0.08190567 0.02814654 -0.14613126
-0.01592067 -0.06733623 0.081161425 -0.123645164 0.043622967 0.02144071 0.07972191 -0.026862834
0.031472087 -0.08716673 0.13929297 0.0045908904 0.08921403 -0.07182956 -0.08137539 -0.112253174
0.07671693 -0.038802322 0.045632794 -0.031435434 -0.0956139 0.122526936 -0.0039341827 0.041121647
-0.06859179 -0.04947437 0.100971706 -9.735471e-05 0.071127124 -0.074300736 -0.10252601 -0.06381548
0.01791603 0.12995042 0.08925908 0.03824692 -0.019864209 0.07305585 -0.060334492 0.035489306
0.012481356 -0.10461733 -0.057773355 0.044931605 0.009825345 0.13578224 -0.07227532 0.10229049
0.1299061 -0.09622756 0.04386689 -0.05401579 0.005012891 -0.026407385 0.05359925 0.071722806

rnn.weight_hh_l2 f4 [64, 64]
00000000: 808f 43bb a8fe 483d 349a c7bd 9676 bdbd
00000010: 44af 17bd f0a5 5b3c a61b e13d 2eb0 f63d
00000020: 5cd0 273d ce3b 913d 20d0 a23c 961b 8bbd
00000030: 16df aabd ce2f cfbd 4858 85bc 4893 e4bd
00000040: 8cd0 583d 58b3 d83c 6ad8 e53d c0be 713b
00000050: d2d9 a83d 265b 8c3d d8cb be3d e0ad c1bc
00000060: 3498 e7bd 281b aabc 8639 c93d 969d ac3d
00000070: c82a 413d b48c 063d 4012 6a3b 10eb 283d
00000080: 543c 903d 4421 9ebd 967f ab3d c663 f73d
00000090: 5074 c63c d09d 8c3d c002 41bb f43b 53bd
000000a0: 68bc 91bd c04e 313d d0dd ca3d b0c1 a8bc
000000b0: b0b7 8b3d c0ff cebd d2a5 c13d a6cd 81bd
000000c0: c4d1 2fbd 80fa a3ba 782c fbbc 66e6 d33d
000000d0: c436 973d 020a e4bd 3092 ad3d 7e84 a2bd
000000e0: 4095 223b 804d 5abb 98ce 883d f4c2 c6bd
000000f0: ec10 713d 94b9 8dbd 3472 65bd 4866 2bbd
00000100: 80dd c83c 0c83 e83d bae6 973d 1882 2e3d
00000110: 4061 8a3c a2eb b2bd 7048 3a3d ec29 85bd
00000120: 7edc 9dbd cc43 25bd 18d2 b63d 62d3 bb3d
00000130: baea e3bd 846b 6cbd 4607 dbbd e848 bfbd
00000140: 1878 fbbc e4ae 9abd e004 f5bd 9414 563d
00000150: 56aa 87bd b0fb 02bc 7051 983c 7852 5a3d
00000160: 84b3 80bd d479 37bd c04a 1bbd 88c0 953c
00000170: ec8a fb3d 70f3 87bd 90c4 c43d fa5f a7bd
00000180: 7a0f a13d c25b edbd 50bc 5b3d be29 c73d
00000190: 88e8 1a3d 5c07 25bd 1803 8bbd 1091 51bc
000001a0: 163d 873d c010 d6bc 02b2 f13d f009 cb3d
000001b0: e0e4 15bc a879 3e3d d60d f73d 2c51 94bd
000001c0: 0000 abbd 5890 ad3c a468 72bd 1044 293c
000001d0: 66e2 a63d a013 b63d 44ff a9bd dc86 63bd
000001e0: 7035 60bc 5493 d53d 6a62 da3d 4ae7 f53d
000001f0: 0868 b23d 6e83 8abd b4d6 57bd 600d c7bd
00000200: b0ab 143d fe87 d83d 443e 773d b418 663d
00000210: 7239 91bd bcf2 f0bd 549a adbd 5a01 8c3d
00000220: b200 823d b286 e4bd 98aa a2bc 00b6 94bd
00000230: ece6 02bd 60dd d2bc 0041 253d f0db 893c
00000240: 4ce5 083d 1024 8cbd 5c83 7cbd 00b6 a43a
00000250: 54a4 06bd 7077 7ebd 789f acbc c047 ca3c
00000260: b07b 1abd b88f 13bd 248d 75bd 1236 8d3d
00000270: 5063 f63c 30a2 f13c e4fe 5e3d 78d5 e5bc
00000280: a000 f93d 00d0 3dba a041 b6bc 8ee3 8abd
00000290: 3a19 dfbd f85f f1bd d0dc 883d b001 d33d
000002a0: 78f3 f23d 6850 aa3c 2cf0 5d3d cce5 66bd
000002b0: 4e5c a6bd 8a4b bcbd b8d6 fd3c 7c8e b03d
000002c0: 1026 313c c0d9 7b3b da63 d1bd f8b4 3f3d
000002d0: 98b6 233d c2a6 c4bd c66c b03d e0e0 dc3b
000002e0: f0f9 b13d b03c edbd 80a3 333d aece d43d
000002f0: 2c73 763d 56d4 eb3d c0c7 32bb 80b6 063b
00000300: 5090 3ebc e097 9d3b 8cb8 2abd fa1a 8abd
00000310: d61f af3d cae2 ce3d 806e d2ba 8ce0 ab3d
00000320: 605e 63bd 82ab 893d 7887 a93d 48ce 36bd
00000330: 6847 9bbc 48e0 43bd 52ce ca3d 5e40 9f3d
00000340: 8818 37bd 9ca6 873d c036 343b ac42 b33d
00000350: 4081 313d 3a72 e4bd 90f3 41bd 865e 8cbd
00000360: b881 abbd c08a 7abc 92d3 f73d 98de 4ebd
00000370: 00bf 453c dc29 a33d 7a7b c7bd 5cbe f9bd
00000380: 346e 7e3d 80ba bf3d d831 ae3c a475 6c3d
00000390: d4a6 0dbd 5422 14bd 0017 b3bc 9c28 913d
000003a0: 0019 b13c d024 6b3c c4b0 013d c8a3 2abd
000003b0: fe5c cbbd 3014 36bd f090 dabd 3037 a3bd
000003c0: e2b0 f33d e0e4 11bc c85b e5bd c0e7 c3bb
000003d0: caeb febd ccfa e73d 6c3c d93d c2fa afbd
000003e0: 96aa c03d 7057 cb3d 5af8 cd3d 00e8 593d
000003f0: 56ea 8ebd 30d8 d63c 548f f6bd ea7b afbd
-0.0029840171 0.049070984 -0.09746209 -0.09251134 -0.03703238 0.013406262 0.10991602 0.12045322
0.04097019 0.07091485 0.019874632 -0.06792371 -0.083433315 -0.1011654 -0.016277447 -0.11160904
0.05293326 0.026452705 0.11222918 0.0036887378 0.08244671 0.06853323 0.09316224 -0.02364248
-0.11308327 -0.020764902 0.09825425 0.08428495 0.04715994 0.03284903 0.0035716444 0.041239798
0.07042757 -0.07721189 0.083739445 0.12079577 0.024225384 0.06866038 -0.0029451102 -0.051570848
-0.07116014 0.043287992 0.099055886 -0.02060017 0.06822145 -0.10107374 0.09455456 -0.063380525
-0.042924657 -0.0012510568 -0.030660853 0.103466794 0.073834926 -0.11134721 0.08475149 -0.07935427
0.0024808198 -0.0033310354 0.0668003 -0.09705153 0.05885403 -0.06920162 -0.056017116 -0.04184559
0.024519682 0.1135312 0.074170545 0.042604536 0.016892076 -0.0873635 0.045479238 -0.065021366
-0.07708071 -0.04034786 0.08926791 0.091711774 -0.11128755 -0.057719722 -0.10694747 -0.09340078
-0.030696914 -0.07552889 -0.119638205 0.05226572 -0.06624286 -0.007994577 0.01859352 0.053301305
-0.0628424 -0.04479392 -0.037913084 0.018280283 0.122823566 -0.06638229 0.09607804 -0.08172603
0.0786428 -0.11589767 0.053646386 0.097247586 0.037819415 -0.04029022 -0.067876995 -0.012790933
0.06603448 -0.026131034 0.118015304 0.09914005 -0.009148806 0.04650274 0.12063186 -0.07242045
-0.083496094 0.021186993 -0.059181824 0.010331169 0.08148651 0.08890462 -0.08300641 -0.055548534
-0.0136846155 0.10428491 0.10663302 0.120070055 0.08711249 -0.067633495 -0.05269499 -0.09719348
0.036296546 0.105728135 0.060362116 0.056175902 -0.07091035 -0.11765048 -0.084767014 0.06836195
0.06347789 -0.111585036 -0.019856736 -0.07261276 -0.031958506 -0.025740325 0.040345192 0.016828507
0.0334218 -0.06842816 -0.06164871 0.0012566447 -0.03287156 -0.062125623 -0.021072134 0.024692416
-0.037715614 -0.036025733 -0.059949055 0.06895079 0.030076653 0.029496282 0.0544423 -0.028055891
0.12158322 -0.0007240772 -0.02224809 -0.06781684 -0.108934835 -0.11785883 0.06682742 0.10303056
0.11862844 0.020790294 0.054184124 -0.056371495 -0.081230745 -0.091940954 0.030986175 0.08620927
0.010812297 0.003842935 -0.10224123 0.046803445 0.039969057 -0.09602119 0.08614497 0.0067406744
0.0869025 -0.11583841 0.043857098 0.103909835 0.06016843 0.11515109 -0.0027279705 0.0020555556
-0.0116310865 0.0048093647 -0.041679904 -0.067434266 0.08550994 0.1010185 -0.001605466 0.08392438
-0.055509925 0.06722166 0.08277792 -0.04463032 -0.018954948 -0.047821313 0.09902634 0.07775949
-0.04470113 0.06623575 0.0027498454 0.08752951 0.043336153 -0.111545995 -0.04735142 -0.068539664
-0.08374351 -0.01529187 0.12100901 -0.05050525 0.012069464 0.079669684 -0.09740348 -0.12194511
0.062116817 0.09361744 0.021264002 0.05772938 -0.034582928 -0.03616555 -0.021861553 0.07087824
0.021618366 0.0143520385 0.031662717 -0.0416601 -0.09929846 -0.044452846 -0.10672176 -0.079695106
0.11898972 -0.008904666 -0.111991465 -0.0059785545 -0.12447317 0.113271326 0.10607228 -0.0859275
0.09407537 0.09928787 0.10057135 0.053199768 -0.0697829 0.026226133 -0.120390564 -0.085685566

rnn.bias_ih_l2 f4 [64]
00000000: 5639 503d 1482 ebbc 3758 8c3d 745d 5b3d
00000010: a24b 19bd 72f3 263d 6cda 5dbd 2811 1a3d
00000020: b8f5 003e b504 903d b2b0 e5bc c104 ecbd
00000030: f532 aabd 1168 053c 5a00 83bc dd0b bd3c
00000040: b7df 823d e619 1dbd cde8 803d a7ab 4fbd
00000050: 55b4 68bc 4619 13bc c4f4 1bbd b0a2 daba
00000060: d57f aa3d 88ba b83d 9988 4f3c 7f1e d1bc
00000070: fe8b 85bd b78a e33d 3d95 ee3d 0ec9 85bc
00000080: 0c5c f03d f308 003d 8bb2 eb3d 037d 9a3c
00000090: e2ca cf3d dba6 8ebd 9086 533d 424f 643d
000000a0: 8a36 80bd 0023 bfbd f80b f6bd bcee 20bd
000000b0: 26ad 5d3c bd3c 25bd 363d 29bd d2cd 98bd
000000c0: e963 bdbc 57c4 ebbd 23b9 b8bd 8798 a83d
000000d0: f084 96bd dd8b 4cbd 9e16 68bc d81b 8c3d
000000e0: 6e1c d6bd bc72 d33d 4cf6 b23d 1466 edbd
000000f0: 7928 a8bc 93c1 cebc 3949 723d fc78 62bd
0.05083593 -0.02874855 0.06852763 0.05355592 -0.037425645 0.04075951 -0.05416338 0.037614018
0.12593734 0.07032148 -0.028038356 -0.11524344 -0.083105005 0.008142487 -0.015991379 0.023076946
0.063903265 -0.038354777 0.06294403 -0.05070081 -0.014203151 -0.008978194 -0.038075224 -0.0016680565
0.08325163 0.09019953 0.012666845 -0.025527237 -0.06520842 0.11110442 0.11649559 -0.016331222
0.117363065 0.031258535 0.11508664 0.018858438 0.10146119 -0.06965419 0.051642 0.05573965
-0.062604025 -0.093328476 -0.120140016 -0.039290175 0.013530051 -0.040341128 -0.04131814 -0.07461132
-0.02311893 -0.11512058 -0.09019687 0.08232217 -0.073495746 -0.04993807 -0.014165549 0.06841248
-0.10454641 0.10324618 0.08738384 -0.115917355 -0.020527111 -0.025238788 0.05915186 -0.05529116

rnn.bias_hh_l2 f4 [64]
00000000: e273 933d 3608 ea3d 5efe 5c3d b808 edbd
00000010: 00f0 aa3d 5676 7d3d 9439 473d 7b0a 7dbd
00000020: 0f79 563d 6bd4 923d be01 8d3c e190 123d
00000030: e72d e1bd 6c41 cf3d d984 aebc 5741 d1bd
00000040: a320 633d d609 7cbd e71b 90ba 55d9 4b3d
00000050: 4bd6 a5bd f917 67bd 61ad 82bd 927b 57bd
00000060: 0297 22bd 9276 f73d 7c94 f2bd dfc3 c6bc
00000070: d868 693d a2ea bdbb 507b 543d 5915 e0bc
00000080: 3fe8 f03c cbe7 d4bb c9f3 033d 3c4f 4c3c
00000090: 012b 80bd 0f88 b13d d989 8a3d 1eeb 143d
000000a0: 960d 4fbb 6bb3 843c 63c2 e73c 4099 38bd
000000b0: 6a12 88bd dafa 753c c26c 2fbd 7fd7 56bc
000000c0: 916a a5bd 0530 c13d b7ce dcbd 9a68 90bc
000000d0: 2f4f 523d 4d3a 073d 922e e4bd 4abb 1ebc
000000e0: 6150 44bd 16b5 813d a6dc e7bd f677 39bd
000000f0: 2e95 b1bd 6bfa fe3c a806 d4bd 8ff1 9abc
0.07199837 0.11427347 0.05395352 -0.115739286 0.083465576 0.061880432 0.048638895 -0.061777573
0.052361544 0.07169422 0.017212745 0.0357827 -0.10995083 0.101199 -0.021303581 -0.10217541
0.055451047 -0.061532818 -0.0010994644 0.04976781 -0.08097514 -0.056419346 -0.06380726 -0.05260808
-0.039694794 0.12083162 -0.118447274 -0.02426332 0.056984752 -0.0057957927 0.051875412 -0.02735393
0.029407619 -0.0064973584 0.032214914 0.012470063 -0.06258202 0.08668529 0.067645736 0.036357038
-0.0031593791 0.016198834 0.028290933 -0.045068026 -0.06644137 0.015013421 -0.04282833 -0.013112902
-0.080769666 0.09432987 -0.10781615 -0.017628003 0.051345047 0.033014584 -0.11141695 -0.009688208
-0.047928218 0.063333675 -0.11321382 -0.04528042 -0.08671032 0.031125268 -0.10352832 -0.018914012

fc.weight f4 [1, 64]
00000000: d4e7 e93d 2e67 47bd d47c 9dbd 1efc ed3d
00000010: 5d02 adbd e0e6 7fbd a556 963d d871 8cbc
00000020: 0d8c eb3d b362 2d3d aa62 233d 094d 9dbd
00000030: 16d3 b7bd 6a3f babd 282e 9fbd 949b 8abd
00000040: b4a6 74bd 7a69 1abd ca14 543d 2e9b a13d
00000050: 81c4 ddbd 2eba 9abd 96de 4d3d d457 04be
00000060: 38e1 1abe 719b a63c 7edc 03be aec9 a6bd
00000070: d1a1 30bd 32a9 7f3c 281a 093d b2c6 4d3d
00000080: bfe4 693d 2ffa 7fbd 0d79 9abd bccc 043d
00000090: b132 27bd ca6f c03d 614e 843d 5ff6 52bd
000000a0: 05ca ecbd 65ac 51bd a20b 0a3e c299 05be
000000b0: 9e5c 9abc 0a44 2c3d de8b debc 27e6 d9bc
000000c0: 6531 ed3d d312 0ebe c14e af3d d328 3e3d
000000d0: 9c58 a7bc d8f8 73bd 5840 b93d 2ba2 ec3c
000000e0: 7171 aa3d 11f4 a1bd 3723 eebd 91d6 adbd
000000f0: 48c1 7dbd f2bb 0a3d 5336 8e3d a0f9 043e
0.11421171 -0.048682384 -0.07689825 0.11620353 -0.084477164 -0.06247604 0.07340745 -0.017144129
0.11501322 0.042330455 0.039889015 -0.07680709 -0.08975808 -0.090941265 -0.077724755 -0.067679554
-0.059729293 -0.037698247 0.05177764 0.07890926 -0.10828496 -0.07555042 0.050261103 -0.12924129
-0.15124977 0.020337792 -0.1287708 -0.08143936 -0.04312307 0.015604304 0.03347221 0.05023832
0.057102915 -0.062494453 -0.0754262 0.032421812 -0.040819827 0.09396322 0.06460262 -0.05150449
-0.1156197 -0.0511898 0.13481 -0.13046935 -0.018842991 0.042057075 -0.027166303 -0.026599003
0.11581687 -0.13874368 0.08559943 0.04642565 -0.020427994 -0.059563488 0.09045476 0.028885921
0.083224185 -0.0790788 -0.116278104 -0.08488191 -0.061951905 0.033870645 0.06943955 0.1298585
